(GROUPSPARSITY) f321@f321:~/zyt/prunning_zhu/scripts$ sh prune_vgg.sh 
Prune_VGG_CIFAR10_LR0.1r0.01f0.1_svd2_R2e-4_T5e-2_S0.1_A2_E300_l1_Ratio0.6090
Batch size: 64 = 1 x 64
Files already downloaded and verified
Files already downloaded and verified
Making model...
Import Module
CUDA is ready!
During training phase, the model is loaded here.
Prune(
  (features): Sequential(
    (0): BasicBlock(
      (0): Conv2d(3, 64, kernel_size=(3, 3), stride=(1, 1), padding=(1, 1))
      (1): BatchNorm2d(64, eps=1e-05, momentum=0.1, affine=True, track_running_stats=True)
      (2): ReLU(inplace=True)
    )
    (1): BasicBlock(
      (0): Conv2d(64, 64, kernel_size=(3, 3), stride=(1, 1), padding=(1, 1))
      (1): BatchNorm2d(64, eps=1e-05, momentum=0.1, affine=True, track_running_stats=True)
      (2): ReLU(inplace=True)
    )
    (2): MaxPool2d(kernel_size=2, stride=2, padding=0, dilation=1, ceil_mode=False)
    (3): BasicBlock(
      (0): Conv2d(64, 128, kernel_size=(3, 3), stride=(1, 1), padding=(1, 1))
      (1): BatchNorm2d(128, eps=1e-05, momentum=0.1, affine=True, track_running_stats=True)
      (2): ReLU(inplace=True)
    )
    (4): BasicBlock(
      (0): Conv2d(128, 128, kernel_size=(3, 3), stride=(1, 1), padding=(1, 1))
      (1): BatchNorm2d(128, eps=1e-05, momentum=0.1, affine=True, track_running_stats=True)
      (2): ReLU(inplace=True)
    )
    (5): MaxPool2d(kernel_size=2, stride=2, padding=0, dilation=1, ceil_mode=False)
    (6): BasicBlock(
      (0): Conv2d(128, 256, kernel_size=(3, 3), stride=(1, 1), padding=(1, 1))
      (1): BatchNorm2d(256, eps=1e-05, momentum=0.1, affine=True, track_running_stats=True)
      (2): ReLU(inplace=True)
    )
    (7): BasicBlock(
      (0): Conv2d(256, 256, kernel_size=(3, 3), stride=(1, 1), padding=(1, 1))
      (1): BatchNorm2d(256, eps=1e-05, momentum=0.1, affine=True, track_running_stats=True)
      (2): ReLU(inplace=True)
    )
    (8): BasicBlock(
      (0): Conv2d(256, 256, kernel_size=(3, 3), stride=(1, 1), padding=(1, 1))
      (1): BatchNorm2d(256, eps=1e-05, momentum=0.1, affine=True, track_running_stats=True)
      (2): ReLU(inplace=True)
    )
    (9): MaxPool2d(kernel_size=2, stride=2, padding=0, dilation=1, ceil_mode=False)
    (10): BasicBlock(
      (0): Conv2d(256, 512, kernel_size=(3, 3), stride=(1, 1), padding=(1, 1))
      (1): BatchNorm2d(512, eps=1e-05, momentum=0.1, affine=True, track_running_stats=True)
      (2): ReLU(inplace=True)
    )
    (11): BasicBlock(
      (0): Conv2d(512, 512, kernel_size=(3, 3), stride=(1, 1), padding=(1, 1))
      (1): BatchNorm2d(512, eps=1e-05, momentum=0.1, affine=True, track_running_stats=True)
      (2): ReLU(inplace=True)
    )
    (12): BasicBlock(
      (0): Conv2d(512, 512, kernel_size=(3, 3), stride=(1, 1), padding=(1, 1))
      (1): BatchNorm2d(512, eps=1e-05, momentum=0.1, affine=True, track_running_stats=True)
      (2): ReLU(inplace=True)
    )
    (13): MaxPool2d(kernel_size=2, stride=2, padding=0, dilation=1, ceil_mode=False)
    (14): BasicBlock(
      (0): Conv2d(512, 512, kernel_size=(3, 3), stride=(1, 1), padding=(1, 1))
      (1): BatchNorm2d(512, eps=1e-05, momentum=0.1, affine=True, track_running_stats=True)
      (2): ReLU(inplace=True)
    )
    (15): BasicBlock(
      (0): Conv2d(512, 512, kernel_size=(3, 3), stride=(1, 1), padding=(1, 1))
      (1): BatchNorm2d(512, eps=1e-05, momentum=0.1, affine=True, track_running_stats=True)
      (2): ReLU(inplace=True)
    )
    (16): BasicBlock(
      (0): Conv2d(512, 512, kernel_size=(3, 3), stride=(1, 1), padding=(1, 1))
      (1): BatchNorm2d(512, eps=1e-05, momentum=0.1, affine=True, track_running_stats=True)
      (2): ReLU(inplace=True)
    )
    (17): MaxPool2d(kernel_size=2, stride=2, padding=0, dilation=1, ceil_mode=False)
  )
  (classifier): Sequential(
    (0): Linear(in_features=512, out_features=512, bias=True)
    (1): Linear(in_features=512, out_features=512, bias=True)
    (2): Linear(in_features=512, out_features=10, bias=True)
  )
)
# parameters: 15,253,578
1x1: 0
3x3: 1,634,496
Others: 0
Linear:529,408

Preparing loss function...
Loss function:
1.000 * CE
[Epoch 1]	Learning rate: Group 0 - 0.001 / Group 1 - 0.1	Searching Stage

Evaluation:
  0%|                                                    | 0/20 [00:00<?, ?it/s  5%|██▏                                         | 1/20 [00:00<00:07,  2.39it/s 20%|████████▊                                   | 4/20 [00:00<00:04,  3.27it/s 35%|███████████████▍                            | 7/20 [00:00<00:02,  4.44it/s 50%|█████████████████████▌                     | 10/20 [00:00<00:01,  5.94it/s 65%|███████████████████████████▉               | 13/20 [00:00<00:00,  7.78it/s 80%|██████████████████████████████████▍        | 16/20 [00:00<00:00,  9.98it/s 95%|████████████████████████████████████████▊  | 19/20 [00:01<00:00, 12.39it/s100%|███████████████████████████████████████████| 20/20 [00:01<00:00, 16.83it/s]
Loss: 0.346 (Best: 0.346 from epoch 1)
Top1 error: 6.280 (Best: 6.280 from epoch 1)
Top5 error: 0.760 (Best: 0.760 from epoch 1)
Time: 1.19s

BasicBlock(
  (0): Conv2d(64, 64, kernel_size=(3, 3), stride=(1, 1), padding=(1, 1))
  (1): BatchNorm2d(64, eps=1e-05, momentum=0.1, affine=True, track_running_stats=True)
  (2): ReLU(inplace=True)
)
bias1 : 
tensor([ … device='cuda:0')
BasicBlock(
  (0): Conv2d(64, 128, kernel_size=(3, 3), stride=(1, 1), padding=(1, 1))
  (1): BatchNorm2d(128, eps=1e-05, momentum=0.1, affine=True, track_running_stats=True)
  (2): ReLU(inplace=True)
)
bias1 : 
tensor([… device='cuda:0')
BasicBlock(
  (0): Conv2d(128, 128, kernel_size=(3, 3), stride=(1, 1), padding=(1, 1))
  (1): BatchNorm2d(128, eps=1e-05, momentum=0.1, affine=True, track_running_stats=True)
  (2): ReLU(inplace=True)
)
bias1 : 
tensor([… device='cuda:0')
BasicBlock(
  (0): Conv2d(128, 256, kernel_size=(3, 3), stride=(1, 1), padding=(1, 1))
  (1): BatchNorm2d(256, eps=1e-05, momentum=0.1, affine=True, track_running_stats=True)
  (2): ReLU(inplace=True)
)
bias1 : 
tensor([… device='cuda:0')
BasicBlock(
  (0): Conv2d(256, 256, kernel_size=(3, 3), stride=(1, 1), padding=(1, 1))
  (1): BatchNorm2d(256, eps=1e-05, momentum=0.1, affine=True, track_running_stats=True)
  (2): ReLU(inplace=True)
)
bias1 : 
tensor([… device='cuda:0')
BasicBlock(
  (0): Conv2d(256, 256, kernel_size=(3, 3), stride=(1, 1), padding=(1, 1))
  (1): BatchNorm2d(256, eps=1e-05, momentum=0.1, affine=True, track_running_stats=True)
  (2): ReLU(inplace=True)
)
bias1 : 
tensor([ … device='cuda:0')
BasicBlock(
  (0): Conv2d(256, 512, kernel_size=(3, 3), stride=(1, 1), padding=(1, 1))
  (1): BatchNorm2d(512, eps=1e-05, momentum=0.1, affine=True, track_running_stats=True)
  (2): ReLU(inplace=True)
)
bias1 : 
tensor([ … device='cuda:0')
BasicBlock(
  (0): Conv2d(512, 512, kernel_size=(3, 3), stride=(1, 1), padding=(1, 1))
  (1): BatchNorm2d(512, eps=1e-05, momentum=0.1, affine=True, track_running_stats=True)
  (2): ReLU(inplace=True)
)
bias1 : 
tensor([ … device='cuda:0')
BasicBlock(
  (0): Conv2d(512, 512, kernel_size=(3, 3), stride=(1, 1), padding=(1, 1))
  (1): BatchNorm2d(512, eps=1e-05, momentum=0.1, affine=True, track_running_stats=True)
  (2): ReLU(inplace=True)
)
bias1 : 
tensor([ … device='cuda:0')
BasicBlock(
  (0): Conv2d(512, 512, kernel_size=(3, 3), stride=(1, 1), padding=(1, 1))
  (1): BatchNorm2d(512, eps=1e-05, momentum=0.1, affine=True, track_running_stats=True)
  (2): ReLU(inplace=True)
)
bias1 : 
tensor([ … device='cuda:0')
BasicBlock(
  (0): Conv2d(512, 512, kernel_size=(3, 3), stride=(1, 1), padding=(1, 1))
  (1): BatchNorm2d(512, eps=1e-05, momentum=0.1, affine=True, track_running_stats=True)
  (2): ReLU(inplace=True)
)
bias1 : 
tensor([ … device='cuda:0')
BasicBlock(
  (0): Conv2d(512, 512, kernel_size=(3, 3), stride=(1, 1), padding=(1, 1))
  (1): BatchNorm2d(512, eps=1e-05, momentum=0.1, affine=True, track_running_stats=True)
  (2): ReLU(inplace=True)
)
bias1 : 
tensor([… device='cuda:0')
FLOPs ratio 89.60 = 0.2818 [G] / 0.3146 [G]; Parameter ratio 71.57 = 10916.84 [k] / 15253.58 [k].
[Epoch 2]	Learning rate: Group 0 - 0.001 / Group 1 - 0.1	Searching Stage

Evaluation:
  0%|                                                    | 0/20 [00:00<?, ?it/s  5%
…
